model.pt (torch, 565426 bytes, 33 tensors)

embed.weight f4 [18, 64]
000000 8b cf cb bf da 4b d1 be 09 65 d4 3e 26 ed fe 3e
       -1.5922712 -0.40878183 0.41483334 0.49790305
000010 5f 96 24 3e f3 37 f4 3f 45 33 81 bf 20 37 4d be
       0.16072987 1.9079574 -1.0093771 -0.2004056
000020 36 b5 23 be f6 6a ef bf 12 40 c1 3e 6a 4f 62 bf
       -0.15987095 -1.8704517 0.37744194 -0.88402426
000030 26 f4 97 bf a1 e7 ff bd 78 4c 5a 3f a5 4a f2 3c
       -1.1871383 -0.124953516 0.8527293 0.029576609
000040 e8 46 6b 3f 33 8f ca be 74 36 d8 3f c4 eb a5 bd
       0.9190507 -0.39562377 1.6891618 -0.08101609
000050 d5 1e 1a bf a9 0f 84 bf 6f b0 bb be 14 3f 13 3f
       -0.60203296 -1.0317279 -0.36658046 0.57518125
000060 42 41 93 bd 17 8a 81 bf fd d4 8e 3f 26 2a 35 3e
       -0.07190181 -1.0120267 1.1158749 0.1769186
000070 cf ac 61 3f e1 c6 1b 3f 76 57 a5 3f 2e 4e b0 be
       0.8815431 0.6085034 1.2917316 -0.34434646
000080 c6 37 89 bd aa 4f 39 c0 4a f5 1f be 85 c0 9e 3f
       -0.06700091 -2.8954873 -0.15620914 1.2402502
000090 4a 7f 93 3f ff a6 d2 3e 07 51 b3 3e b9 a3 20 40
       1.152322 0.41143033 0.35022756 2.5099928
0000a0 74 9d a9 3f df 57 54 be 43 8e f5 bd ab 89 84 3e
       1.3251176 -0.20736645 -0.11990025 0.25886282
0000b0 e4 92 aa bf 17 2a be 3e 58 73 68 3f a6 f1 0d 40
       -1.3326077 0.37141487 0.90801 2.217874
0000c0 ca 3d cb be 67 d2 f6 be db 5f a0 bf 11 62 31 3f
       -0.3969558 -0.482074 -1.2529253 0.6929026
0000d0 c3 f8 58 bf fa 5f 8e 3f 65 35 a0 be 1e 88 a2 3e
       -0.8475458 1.112304 -0.31290737 0.31744474
0000e0 e6 aa 0d 3f b0 3e 76 3f 5a 35 0f 3f 73 4e 4f be
       0.55338895 0.96189404 0.55940783 -0.2024477
0000f0 64 b1 91 3f e1 f3 53 bf 02 cc d9 be 6e b8 19 bf
       1.138226 -0.82794005 -0.42538458 -0.6004704
000100 8a 40 1b be 11 54 34 3f d5 61 01 3f ab 8b 07 3f
       -0.15161338 0.70440775 0.50539905 0.5294749
000110 20 9b 0f 3f 0a f5 1a bf 58 01 8e 3e 16 e5 0c bf
       0.56096077 -0.6053015 0.277354 -0.5503706
000120 d6 00 30 bf 09 90 54 bf e1 75 3b bf 53 aa 9d 3e
       -0.68751276 -0.8303228 -0.73226744 0.3079401
000130 51 6d 54 3e 74 57 4d 3e a2 07 83 3f 71 c3 56 bf
       0.20744826 0.20052892 1.0236704 -0.8389197
000140 41 13 ae bf 04 e3 a9 3f 78 75 ed be f6 a9 1d be
       -1.3599626 1.3272405 -0.46378684 -0.15396866
000150 1b ba d3 3f 19 11 89 3e 43 d5 82 3f f1 1b 45 3e
       1.654117 0.26770857 1.0221332 0.1924894
000160 96 b0 97 bf 17 0a 1a 3f 95 e6 fa be 6f c8 05 3f
       -1.1850765 0.60171646 -0.49004045 0.5225896
000170 c7 ff 4e 3e ef 6c f1 be f6 1c fc bf 8e fd 96 bf
       0.20214759 -0.47153422 -1.9696338 -1.1796129
000180 64 d1 c9 be 52 95 7d bf 99 ae dd 3e e9 b3 c9 3e
       -0.39417565 -0.9905597 0.4329727 0.39395073
000190 71 0d 3e 3e 51 fb 38 bf b1 fe dc 3f 37 d6 63 3e
       0.18559815 -0.7225848 1.7265226 0.22249685
0001a0 94 2d 7f 3f 45 65 14 bf 20 c8 a6 3f 0b 12 92 be
       0.9967892 -0.57967025 1.3029823 -0.2852939
0001b0 fb ff 18 3e 05 68 8b be 8a b4 1b bf da 99 0b 3f
       0.14941399 -0.27227798 -0.60822356 0.54531634
0001c0 8e 9d 79 bf 5f 2d 3e 3d c7 c4 81 bd c0 19 2e bd
       -0.97506034 0.046429988 -0.063363604 -0.042505026
0001d0 d2 6b 24 bf 37 14 91 3e a2 4c 87 bf 66 5b ac bf
       -0.6422702 0.28335735 -1.0570261 -1.3465393
0001e0 d0 59 88 3e c3 c2 36 3f ae 62 43 3f 3a c4 e3 be
       0.26631021 0.7139093 0.7632245 -0.44485646
0001f0 88 30 76 3e 90 24 fb bf d1 b6 35 3f 65 1a d9 bf
       0.2404195 -1.9620533 0.7098208 -1.696118
000200 ce d9 52 3f 5d 59 0a 3f 7a 30 23 be ab 84 fb be
       0.82363594 0.5404261 -0.15936461 -0.49124655
000210 4f ed 6e 3f ad dc 07 c0 39 3a d9 bf 4d ac 2a bf
       0.93330854 -2.122844 -1.6970893 -0.6666916
000220 72 a2 d3 be 08 2f 9b be 81 c6 46 3d d9 87 b0 3f
       -0.41334873 -0.3030932 0.04852915 1.3791457
000230 62 48 3b bf 24 cc 44 be 54 58 e3 3f 43 3b d6 be
       -0.7315732 -0.19218498 1.7761331 -0.41842088
000240 db 6a bc 3e 88 7c 13 40 f0 37 ba 3f 97 10 6c be
       0.36800274 2.3044758 1.4548321 -0.23053204
000250 d7 25 3a 3f bb af 1b be e7 4d e8 3d c6 27 0a 3f
       0.7271399 -0.15203755 0.11342984 0.5396694
000260 92 d1 da 3d 66 32 2a 3e 15 dc b7 3d ef a1 53 3f
       0.106845036 0.16620788 0.08977524 0.82668966
000270 39 4d 98 3f fa e9 5f bf ff 8c 45 3c 53 72 b7 3e
       1.1898566 -0.87466395 0.012057542 0.3582941
000280 b0 40 62 bf b5 d2 8a bf 79 12 dd bf bc a3 b4 bd
       -0.88379955 -1.0845553 -1.7271262 -0.08820292
000290 2c 60 33 3f 70 73 9c 3f 61 f2 e6 be 3c 33 c1 3f
       0.7006862 1.2222729 -0.45106795 1.509376
0002a0 da 1e ad 3e b3 58 f3 3d f3 c7 f8 3e 9f 1c 67 bf
       0.338126 0.118821524 0.4859005 -0.9027805
0002b0 32 a8 53 bf cf d1 a9 bd 9f 25 8c bf 11 32 f7 3e
       -0.8267852 -0.08291971 -1.0948981 0.48280385
0002c0 64 82 cd be 9d d5 d9 3f 89 67 dc be 94 03 de be
       -0.40138543 1.7018315 -0.4304774 -0.43362105
0002d0 7d d8 cf bf f6 6f cc 3f 28 a5 92 bf 87 8d 47 3e
       -1.6237942 1.5971668 -1.1456652 0.19487582
0002e0 a9 80 4b bf 6c 48 7b 3c 77 60 80 be 9a a6 25 bf
       -0.79493195 0.015337091 -0.25073597 -0.6470734
0002f0 40 93 75 3f a1 6d b9 bf 01 ce 10 3f b0 55 16 3f
       0.9592781 -1.4486581 0.56564337 0.587245
000300 2e 8b ed be 67 93 bc 3f a9 6b af bd 7a 77 1b bf
       -0.46395248 1.4732484 -0.085654564 -0.6072918
000310 76 df 12 40 cc 04 83 3f 9b 93 78 3e 33 c9 cf be
       2.294889 1.0235839 0.24275057 -0.4058319
000320 fd 6d 79 3e 6c b7 c1 3e 66 32 2e bf 87 4b c6 3f
       0.24358363 0.37835252 -0.6804565 1.5491799
000330 9d 69 ae bf e1 b4 7c bf f9 c2 36 3f 29 42 f0 3e
       -1.3625981 -0.987135 0.71391255 0.46925476
000340 8f 7d 6b bf de 92 ec 3e 2a d7 4e 3c 45 c6 89 3f
       -0.9198846 0.462058 0.012624541 1.0763632
000350 3a a3 81 bf 4b d9 b4 3f 99 e8 4e bf 4c e2 8b be
       -1.0127938 1.4128813 -0.80823666 -0.27321088
000360 59 16 9f 3f 24 34 9b 3f f7 5a 24 bf ba 6d 73 3f
       1.2428695 1.2125287 -0.642013 0.95089304
000370 79 cf 94 3f 8d 13 4d 3f 50 19 04 bf 71 0e 50 3f
       1.1625816 0.8010796 -0.51601124 0.81272036
000380 69 69 81 bf ba d8 f2 bd c4 36 19 3f 26 c3 86 3e
       -1.0110294 -0.118577436 0.5984919 0.2632076
000390 0d d8 f4 be 47 1e 58 be c0 7d 30 3f ee 1f d3 3e
       -0.47821084 -0.211053 0.6894188 0.41235298
0003a0 ea 60 85 be b8 a8 10 3f 0d a6 09 3f 46 bb a0 3f
       -0.26050502 0.56507444 0.53769 1.2557151
0003b0 36 26 b5 bf 28 64 96 3c 77 e8 8a bf 65 1c f2 3e
       -1.4152286 0.018358305 -1.0852193 0.47287288
0003c0 55 d4 8a bf 1b 0d 18 be df 88 39 bf b5 f7 3f 3f
       -1.0846049 -0.1484875 -0.72474474 0.74987346
0003d0 fa 2f 1a 3f 39 b7 be 3f bb 92 95 3e 69 ff 1c 40
       0.60229456 1.4899665 0.2921351 2.453089
0003e0 70 8d 6d be c5 07 c5 3e 64 09 86 3f b0 40 16 bf
       -0.23198485 0.3848249 1.0471616 -0.58692455
0003f0 b8 e3 b7 3f 47 be 74 be 1d 63 35 bf 02 d4 94 3f
       1.4366369 -0.2390071 -0.7085436 1.16272

blocks.0.attn.key.weight f4 [64, 64]
000000 f8 7e a8 3d de b0 d5 3d 17 0d be 3d 26 35 2f 3d
       0.08227342 0.10434125 0.092798404 0.042775296
000010 a2 a5 27 bc 3e 93 22 bd 13 92 99 bc d7 b4 98 bd
       -0.010232361 -0.039691202 -0.018746411 -0.074563675
000020 6f e0 97 bd f8 a6 df bc d2 4d 82 3d a6 54 d9 bd
       -0.07415854 -0.027301297 0.06362499 -0.106118485
000030 48 92 b9 bd a1 63 f7 3d 5d 2b 8f bd e8 d7 d1 3d
       -0.09061104 0.120795496 -0.06990693 0.10246259
000040 a8 78 0b bd 4a d1 d8 3d 29 84 66 3d 37 ec 60 bd
       -0.034050614 0.10586794 0.05627838 -0.054912772
000050 7e cc d9 3b ca 92 cc 3d 83 b5 08 bb 7e 94 5a 3d
       0.006646692 0.09988935 -0.0020860143 0.05336427
000060 c6 a9 98 bd 2c 53 c6 bd 18 b0 54 3d fe fc a1 bd
       -0.07454257 -0.096838325 0.05192575 -0.079095826
000070 9e ee 61 bd 23 a5 b7 bd 67 d0 e1 3b 29 10 2e 3d
       -0.055159204 -0.08967044 0.0068912986 0.04249588
000080 ad 5e 6f 3d 26 d5 21 3e 6c 5c ad bc 06 c3 3b 3c
       0.0584399 0.15803966 -0.021162234 0.011460071
000090 37 74 27 bc cc 1a cd 3d f2 aa 12 be 2a c9 61 3d
       -0.010220579 0.10014877 -0.14323023 0.055123486
0000a0 ef 80 4a be 3e 2d 84 bd fe 25 ad 3b b5 99 b6 bd
       -0.19775747 -0.06453942 0.00528407 -0.08916036
0000b0 72 9d 69 bd 2c 43 c3 3c 83 a1 af bc 89 3e d9 3c
       -0.057034917 0.023835741 -0.02143932 0.026519077
0000c0 d6 bd b9 bd f8 21 b5 3c 17 2f d9 bd 50 2a d5 3d
       -0.090694115 0.022110924 -0.10604685 0.10408461
0000d0 76 b3 5a bd d3 28 0d 3e 02 44 c5 3d 35 a2 eb 3d
       -0.053393804 0.13785104 0.09632112 0.11505548
0000e0 dc 9c ba bd dd 44 2f bd 83 57 cc 3d ee 25 c1 3c
       -0.0911195 -0.042790283 0.09977629 0.023577657
0000f0 88 70 b1 3d ac 72 61 bb ce 39 9f bd a8 b7 b4 3c
       0.08664042 -0.0034400625 -0.07774697 0.02206023
000100 0d c3 b3 3d 08 12 b3 3d 91 6b 84 3d 34 7a c8 bd
       0.08777437 0.087436736 0.06465829 -0.097889334
000110 c3 c9 ea bd 84 85 3d 3c 33 62 6f bd d6 61 bc 3d
       -0.11464264 0.011567477 -0.05844326 0.09198348
000120 14 40 d0 3d f2 84 5a bd 81 6d 82 bd 48 7c c1 bd
       0.10168472 -0.053349443 -0.063685425 -0.09447533
000130 51 68 5a bd 2d c9 f7 3d 2a da 02 3c 29 d2 67 3d
       -0.05332214 0.12098918 0.007986585 0.05659691
000140 84 39 c6 3d 83 5c 04 bd 0d 9b 3b 3c 07 20 80 bd
       0.09678939 -0.03231479 0.011450541 -0.06256109
000150 79 2b 82 bd 4e 90 b9 3d f9 3b fe bd b2 3a 3c bd
       -0.06355948 0.09060727 -0.124137826 -0.045954414
000160 fc 01 e1 3c 40 1a 22 bd 75 41 ac bb 64 4a 80 bd
       0.027466767 -0.039575815 -0.0052568265 -0.06264189
000170 b5 2f a5 bd b7 0e dd 3d d2 d6 8e 3d 4a 5a d9 3d
       -0.0806574 0.10793822 0.069745675 0.106129244
000180 fa e4 4d 3d 5f f0 82 bd 20 1b 23 3d 30 6b 86 3d
       0.050267197 -0.063935034 0.03982079 0.06563413
000190 51 19 8c 3c 8b 2e 9d bd 6f fb 80 bd 5f b0 55 bc
       0.017101916 -0.07674893 -0.06297957 -0.013042538
0001a0 a5 ce b5 bd d7 da df 3d 4a 51 ce bd ab 86 ca 3d
       -0.08877305 0.10930412 -0.100740984 0.09888967
0001b0 db c8 9d 3d e1 97 db bd 69 39 2b 3c 54 f8 5a bd
       0.07704326 -0.10722328 0.010450699 -0.05345948
0001c0 58 c8 fd 3c 8e db 78 3d 99 c9 07 bd 50 07 c5 3d
       0.03097932 0.06075626 -0.033151243 0.096205354
0001d0 f0 8a 89 3d 3e a5 a6 bd e7 5e b6 3d 02 3a a1 bd
       0.06715953 -0.08136986 0.0890482 -0.07872392
0001e0 31 db e7 3d ce 5e 07 bd c9 7c 7e bd 58 ed 82 bc
       0.11321104 -0.033049397 -0.062130723 -0.015982315
0001f0 39 e6 20 3b 8e b1 9b 3d e3 12 9a bd 09 e4 16 be
       0.0024551286 0.07602225 -0.075231336 -0.14735426
000200 59 32 e2 3d 7b 99 95 bd 6e 3d 15 bb 22 22 03 bd
       0.11044759 -0.07304665 -0.002277221 -0.032014973
000210 ab f5 30 3a 4b 18 93 3c 65 a9 99 bd 50 b2 36 bd
       0.00067504746 0.01795592 -0.075030126 -0.044603646
000220 ef f2 14 3e 37 da 8a bc 1f 7a 89 3c ce ff 64 bd
       0.14545797 -0.016949756 0.016781865 -0.055908017
000230 4c c4 ce 3d ec e3 48 3c f6 8c b2 3c 15 c2 39 3d
       0.100960344 0.012261372 0.021795731 0.045351107
000240 59 37 3a 3d 7d 8d b8 3d 80 5f b2 bd d7 9b bc 3d
       0.04546294 0.09011362 -0.087096214 0.092094116
000250 f2 cc 0c 3d 2f 25 5a bd 3c fa 14 3c f9 95 29 bc
       0.03437514 -0.053258117 0.009092864 -0.010350698
000260 50 8e 92 3d 19 1b ad 3c cc 92 00 3e 8b 29 76 bb
       0.0715605 0.021131085 0.12555999 -0.0037561383
000270 a5 22 83 3d a5 74 08 3e 09 31 d8 3a e1 2a ac bd
       0.06403092 0.13325746 0.0016494106 -0.08406616
000280 05 8b c0 3a 67 e2 66 3d 4e dc a5 3d 41 be c0 bc
       0.0014689869 0.056368258 0.080986604 -0.02352822
000290 b0 b8 2e 3d 10 bf cd 3d 0a ec 1c 3e 44 13 fe bd
       0.0426566 0.10046208 0.15324417 -0.124060184
0002a0 c6 52 12 3e 15 44 40 3d c9 be c2 bd e3 d5 b2 bd
       0.14289388 0.046939928 -0.09509046 -0.08732202
0002b0 91 0b 6c 3d eb 7d 01 bd b9 1b ba bd 94 62 bb 3b
       0.057628218 -0.031614225 -0.09087319 0.0057185385
0002c0 ed f1 65 3d c2 9f c9 3c e3 db 29 3d ca 35 cd bd
       0.05613892 0.024612311 0.041469466 -0.10020025
0002d0 35 05 03 3e da 4b a3 bd 41 35 a7 3c e8 f0 68 3d
       0.12794955 -0.07973452 0.020411136 0.05687037
0002e0 fe f6 57 3c 8c a7 8c 3d f2 0a 82 bd 00 da 50 3d
       0.013181446 0.068678945 -0.06349744 0.05098915
0002f0 8c 60 44 3d 3a 22 69 3d 4a 0d 90 3c c4 ad c4 bd
       0.047943637 0.056917407 0.017584462 -0.09603456
000300 f7 8e 84 bd a4 00 62 bd b1 91 f9 3d 54 1b 0a 3e
       -0.06472581 -0.055176392 0.121859916 0.13486987
000310 2a fa a6 bd f9 36 ac bd 41 c5 76 bd 9c 37 e2 3d
       -0.08153184 -0.08408923 -0.06024671 0.11045763
000320 e5 fd 34 3c c9 d6 99 bd c9 ea 88 bc 26 25 60 3d
       0.011046861 -0.0751167 -0.016713517 0.054722928
000330 d5 95 46 bd ca 35 f9 3d d1 bd e4 bd d1 d8 20 3e
       -0.048482735 0.121684626 -0.11169017 0.15707709
000340 0d 43 9e bd a7 73 9a 3d 19 e3 00 3d 31 b1 c7 bc
       -0.07727633 0.0754159 0.031466577 -0.024376484
000350 86 87 28 3d 4e fa 9f bd 34 48 c5 bd 29 01 18 bc
       0.04114487 -0.07811414 -0.09632912 -0.00927762
000360 71 53 7d bd 1f c2 09 be 9d e9 08 3e f5 0a 8c 3d
       -0.061847154 -0.13452958 0.13370366 0.068380274
000370 93 44 09 be 7d 79 17 bd 33 9f 43 3d 99 73 b5 bd
       -0.13405065 -0.036981095 0.047759246 -0.08859939
000380 e5 95 bc bd 4b 66 68 3d 0f 4f 04 be 96 be 60 3d
       -0.092082776 0.05673818 -0.12920783 0.054869257
000390 3c 7e d2 bd 59 78 ac bc f4 a4 3b bd af 53 85 3d
       -0.102779835 -0.02105348 -0.04581161 0.06510102
0003a0 c5 15 48 bd c3 87 47 3c 3e f3 9c 3d a0 29 f9 bc
       -0.048848886 0.012178364 0.07663582 -0.030415356
0003b0 d6 b2 e3 3d c9 d5 63 3b 9d 60 b4 bc 48 7d cc bd
       0.111180946 0.0034764877 -0.022018725 -0.09984833
0003c0 fa e0 44 3d 64 d0 7f bd ae dd 56 3d 0e d1 76 3d
       0.048066117 -0.062454596 0.052457504 0.060257964
0003d0 fe 77 1d 3e c7 13 a5 bc 6a 3b 6e 3d 7c 2c 25 3e
       0.15377805 -0.020151032 0.05816213 0.1613025
0003e0 83 52 0d bd 3b 67 04 bd 52 1a 1b 3d 5a 7e 58 3d
       -0.034502517 -0.03232501 0.037866898 0.052854873
0003f0 ec b7 a2 3d 39 9c bb bc 15 bf e2 3c 80 8f 08 be
       0.079452366 -0.022901641 0.027679006 -0.13335991

blocks.0.attn.key.bias f4 [64]
000000 d2 c3 70 3d ad 86 b2 bd 80 2d bc 3d 24 90 f6 ba
       0.0587805 -0.087170936 0.09188366 -0.0018811268
000010 d1 58 1b bd 67 53 14 3d c4 56 44 3d 6a 61 23 bd
       -0.0379265 0.03621235 0.04793431 -0.039887823
000020 06 b0 9c 3d b4 0c 8a ba 25 83 a1 bd cd 9c 73 3d
       0.07650761 -0.001053235 -0.07886342 0.05947571
000030 1b 8c b7 bd ea 92 aa bd 9d ac 7c 3d 95 aa 37 3c
       -0.0896227 -0.08328803 0.061688054 0.0112101035
000040 74 fa 07 bd da 9c 9b 3c 06 5e 00 3d f2 c7 b7 3c
       -0.033197835 0.018995691 0.031339668 0.022434209
000050 cd 33 2e bc fb 86 64 bd f8 7b f1 bd fb 7f 61 bd
       -0.010632467 -0.05579279 -0.11791223 -0.055053692
000060 72 c5 d2 3d ac f0 15 3e 4b 8b 57 3d ce 5a ae bb
       0.10291566 0.1464259 0.052623075 -0.0053208834
000070 a7 06 66 3b e8 fc af 3d e8 8e d0 3c f8 3b cb bc
       0.003509918 0.0859316 0.025458768 -0.024808869
000080 76 99 01 bd b5 e0 f8 3b 47 12 0e be 8c 3b e0 3d
       -0.031640492 0.0075951465 -0.1387416 0.10948858
000090 ee 2e 3e bd ca bc c8 3c 94 44 90 bd d0 31 c0 3d
       -0.046431474 0.024504084 -0.0704433 0.09384501
0000a0 67 7e c6 3d 68 8e 18 bd 77 34 ea 3d 73 36 0c 3d
       0.09692078 -0.037245184 0.11435788 0.034231614
0000b0 8b 05 63 3a c8 97 84 bd 0c dd 42 3c b7 9f 92 3d
       0.0008660189 -0.064742625 0.011893522 0.071593694
0000c0 02 87 97 bd 5c 4f 97 3c d5 87 bb 3d 8b 7c 11 3e
       -0.073987976 0.018470459 0.09156767 0.14207666
0000d0 66 a4 bf bc f4 c1 0d bd 74 3e b5 bd a8 ce bb 3d
       -0.023393821 -0.034608796 -0.088498026 0.09170276
0000e0 3a 8f ef 3d db 88 af bd c7 61 c2 bd fc db 8a bd
       0.1169724 -0.08571025 -0.09491306 -0.0678024
0000f0 f6 5f a4 3c c2 ef a1 bd 02 a8 6f bc 1f 74 8e bc
       0.020065289 -0.07907058 -0.0146274585 -0.017389355

blocks.0.attn.query.weight f4 [64, 64]
000000 d0 1d 7f 3d 9b 9d 27 3b 97 e8 83 3d ea a8 2c bd
       0.06228429 0.0025576118 0.06440847 -0.042153277
000010 ae d7 8e bb 54 ca 7e 3d 80 d5 a5 3d 16 82 9d 3d
       -0.004359207 0.062204674 0.080973625 0.076908275
000020 8d 2e f8 3c 53 db 02 3d dc 22 a3 bd fe 82 52 3d
       0.030295635 0.031947445 -0.07965633 0.051394455
000030 58 70 a9 bd 61 3b 81 3d 0f bf db bb 6a c6 ac 3a
       -0.08273381 0.06310154 -0.0067061256 0.0013181691
000040 df aa 0d 3e cc c5 0a be a7 f4 a1 3d 6a 38 c0 3c
       0.13834713 -0.13552016 0.07907992 0.0234644
000050 fa 96 dd bd 33 ff 54 3d fa c5 8e 3d 14 3f ff bc
       -0.10819812 0.05200119 0.06971355 -0.031158008
000060 34 82 77 3d 1a 4c 5f 3d e8 ae 4a bd 54 ce 9c 3d
       0.060426906 0.054515935 -0.04948321 0.076565415
000070 b7 65 12 38 28 b3 c4 3d 65 e4 0d 3e a4 a1 0a bd
       3.4903842e-05 0.09604484 0.13856657 -0.03384556
000080 54 1c ac 3d 35 56 1d 3e 50 a4 d6 bd 41 64 be bd
       0.08403841 0.15364917 -0.10480559 -0.09296466
000090 d1 b1 9e 3d ce ea ce bd d5 8a 8a 3c 23 36 98 3d
       0.077487595 -0.10103379 0.016911903 0.07432201
0000a0 0d ec b3 3b 8a 6f 61 bd 2f f6 25 bd 14 bc 7a 3d
       0.005490786 -0.055038013 -0.040517982 0.06121452
0000b0 a7 99 58 bb ca ca 50 bc 28 c1 12 3d 9a e7 f6 3c
       -0.0033050568 -0.012743661 0.03582874 0.030139733
0000c0 12 78 bd bd c5 23 7e bc 5d 28 82 bd 88 25 96 3d
       -0.09251417 -0.015511458 -0.06355355 0.07331377
0000d0 d2 b2 82 bd 4b 22 d3 bc 9c c9 72 bc df 23 a5 bd
       -0.063817635 -0.025773188 -0.014818575 -0.080634825
0000e0 6a 87 1e bd 89 f1 31 be 16 cd e6 bb fc 33 d4 bc
       -0.03870336 -0.17377295 -0.007043491 -0.025903694
0000f0 a0 d6 04 be 17 79 ab 3b 65 7b 1c be 8b 7c cd bc
       -0.12972498 0.005232941 -0.15281446 -0.0250838
000100 88 f0 e6 bd d4 49 9a 3d 2b 5e 93 3d c0 a4 bc bd
       -0.112763464 0.07533613 0.071956955 -0.09211111
000110 ff 98 6f bd 4a 70 f6 bc d0 02 bf 3d 7a 25 b4 bd
       -0.058495518 -0.03008284 0.09326708 -0.087962106
000120 31 3a 38 bd 19 3d 3d 3d f1 c3 4e bc ba 35 7d bd
       -0.04497737 0.046200845 -0.012619958 -0.061818816
000130 d5 69 0b 3c ec 93 bd 3d ca b7 4b 3d c5 ce 84 bd
       0.008509119 0.092567295 0.04973582 -0.06484751
000140 00 ca ba bd cb 65 70 bd ff bf 90 bd cf cb f9 bd
       -0.0912056 -0.058690827 -0.0706787 -0.121970765
000150 3c 9a 93 bd e7 b7 91 3d 84 f0 76 bd 47 d5 73 bd
       -0.07207152 0.07115155 -0.060287967 -0.05952957
000160 30 61 3e 3c d6 9f df bc 84 86 a2 bd 1d 56 5a bd
       0.011619851 -0.027297895 -0.07935813 -0.05330478
000170 ec e0 20 3c c3 8e 68 3d f4 e3 43 3d 09 17 17 3c
       0.009819251 0.056776773 0.047824815 0.009221801
000180 47 ab cb 3d b9 b8 1d 3e 21 02 80 3d c1 cb cb bd
       0.09944778 0.15402497 0.06250406 -0.09950972
000190 8c 4d 0a bb 83 63 76 3d 51 b3 53 3d 31 7c 74 bd
       -0.002110335 0.060153496 0.05168468 -0.05968875
0001a0 af c1 e1 bd b5 21 59 bd d9 ec bf bd 84 7d 38 bd
       -0.1102327 -0.05301066 -0.09371347 -0.045041576
0001b0 e1 ef a9 bd bc 81 c0 bd b5 04 81 3d 78 f7 97 3d
       -0.082977064 -0.09399745 0.06299726 0.07420248
0001c0 95 30 cf 3c dd a7 6a bd e7 0d 2a bc c9 c1 9f 3d
       0.02529172 -0.057288993 -0.010379291 0.078006335
0001d0 ab d0 a3 3d 3e 79 e0 bc 7a a8 4d bd 5c d3 9b bd
       0.07998785 -0.027401563 -0.0502095 -0.07608673
0001e0 0f df 9b 3c bb 74 b6 bd 2e eb 79 bd 67 de 30 bd
       0.019027261 -0.08908983 -0.0610153 -0.04318085
0001f0 a7 ee 4a 3d 47 e9 22 3d 28 e6 ba 3d c5 b8 bf 3d
       0.049544003 0.03977325 0.0912593 0.09361414
000200 44 12 01 bd 6c bd 6d 3d de b3 22 3d c1 27 cf bc
       -0.03151156 0.058041975 0.039722316 -0.02528751
000210 75 0f 43 bd da f6 90 3d dd 8e 85 3d 06 86 86 bd
       -0.047622163 0.07078333 0.0652139 -0.06568532
000220 c4 90 fe bc 21 ba e4 3d 38 3e 87 bb be 17 fd 3d
       -0.031074889 0.11168314 -0.00412729 0.12358044
000230 a5 3a 91 3d 81 19 fe 3c 8d cd e6 bd 7a ff 50 bd
       0.07091264 0.03101802 -0.112696745 -0.05102489
000240 bb ef 21 bc 1d 9b f3 ba 1a 06 e5 3d 46 ba c7 bd
       -0.009883816 -0.0018585656 0.111828044 -0.09752326
000250 24 f6 6e bd 7b e6 67 bd 11 ac 1e 3d 2c 7a 43 bd
       -0.058340207 -0.056616288 0.038738314 -0.047723934
000260 08 11 cd 3d ea 2a c9 bd 6b 12 e9 bc c7 6f 29 bc
       0.10013014 -0.09822638 -0.028451165 -0.010341591
000270 ca b3 c0 bd ea 0e b5 3b 6f 19 e0 bd 1d 84 e5 3d
       -0.09409292 0.0055254595 -0.10942351 0.11206839
000280 e9 82 ae 3d 3f ab ea bc b2 57 9b bd 3f 83 b1 bd
       0.08521063 -0.02864611 -0.07585086 -0.08667611
000290 ef f8 b4 bc 42 74 97 bd 01 d0 8b 3c 3e 5a 9a 3c
       -0.022091357 -0.07395221 0.017066957 0.018841859
0002a0 f2 72 a0 bd 3d b8 71 bc af e5 19 be ee 97 b6 3c
       -0.07834424 -0.0147533985 -0.15029024 0.022289243
0002b0 4f 4f 36 3c 29 d2 00 bd 04 2e a1 bd f8 b3 77 3d
       0.011127307 -0.031450424 -0.07870105 0.060474366
0002c0 83 3c f3 3d b3 46 a2 3d 96 2a dd bd 0c a4 a3 bd
       0.11876776 0.07923641 -0.10799138 -0.07990274
0002d0 85 32 0c bd 7a 4c 17 3c 76 f0 91 3d 14 c9 47 3d
       -0.034227867 0.009234542 0.071259424 0.048775747
0002e0 c9 ff 19 be 29 52 8c 3d ad 9c 56 3d 28 04 95 3d
       -0.1503898 0.06851608 0.05239551 0.07276183
0002f0 af a3 56 bd b9 d0 41 3b 3d e4 56 bd 37 e5 80 bc
       -0.052402195 0.0029573871 -0.05246376 -0.015734298
000300 91 3a fa bc 50 a3 80 bd 18 1b bc 3c c8 d6 24 3d
       -0.030545505 -0.062811494 0.022962138 0.040243894
000310 03 8d f6 3d 7c 06 a4 bc 38 76 8d 3d 92 45 bd 3c
       0.120386146 -0.020022623 0.06907314 0.023104463
000320 12 63 a6 3d 0f d0 dd 3d c8 34 d7 3c 3d a4 56 3d
       0.08124365 0.108307 0.026270285 0.052402724
000330 05 2e dc bc ac bc 65 3d 96 eb cd 3d 78 27 20 bd
       -0.026877413 0.056088135 0.100547 -0.03910014
000340 8b 0c 03 3e fd 87 c0 3c c9 9c a0 3d d1 f0 e2 bd
       0.12797754 0.023502344 0.078424044 -0.11081088
000350 65 ae bc 3c 67 07 93 bc 10 28 fc bc 87 d7 8f bd
       0.023032377 -0.017947866 -0.030780822 -0.070235305
000360 69 8a 96 3d 4e 88 e0 bd 99 12 d6 3b 4a 80 cf 3d
       0.073506184 -0.10963498 0.0065329787 0.10131891
000370 92 7d ac bd 1a 67 ac bd 96 21 d0 3d 8d f8 8d 3d
       -0.08422388 -0.084181026 0.10162656 0.06932173
000380 e6 9b db bd 0a 6b ac 3d a4 10 1a 3c ea 4a 80 3b
       -0.10723095 0.084188536 0.0094033815 0.0039151805
000390 5e 14 45 bc ce a3 05 3e 28 1b 10 bd 7b d7 e8 bc
       -0.012028782 0.13050768 -0.03518215 -0.028423062
0003a0 42 9a 12 bd c5 1e 44 3d b0 0c 0c 3e cc d9 87 bd
       -0.035791643 0.047880907 0.13676715 -0.06633338
0003b0 f3 1b 06 be 86 49 77 bd e1 23 cb bd 77 9a 65 bd
       -0.130966 -0.06037285 -0.09918953 -0.056055512
0003c0 70 d5 19 bd b7 e7 e5 bc 8d 78 bc 3d 90 da 18 3d
       -0.037557065 -0.028064592 0.09202681 0.037317812
0003d0 cb 46 0e 3d cb 4f f7 3c ee 84 05 3e 40 46 d5 3d
       0.034735482 0.030189415 0.1303899 0.1041379
0003e0 1c b0 b8 bd 6d 8b c8 bd eb ef 1d 3d 01 46 cc bd
       -0.09017965 -0.09792218 0.03855888 -0.0997429
0003f0 84 5b ae 3d cf 8e 3a 3d 3c 68 f6 3b 94 ab 3c 3a
       0.08513549 0.04554635 0.00751975 0.0007197198

blocks.0.attn.query.bias f4 [64]
000000 fc 76 a6 bd b7 b1 5c 3d 4e 31 ce bc cf ab 4a bd
       -0.08128163 0.05388042 -0.025169995 -0.049480256
000010 84 4d e6 3d fe 11 14 bd 4f a1 90 bd 56 9e d3 3c
       0.11245254 -0.03614997 -0.07062017 0.025832336
000020 92 97 2a 3d 0b 9c d0 3d 40 cb 1d 3e 3e ee 24 3c
       0.041648455 0.10186013 0.15409565 0.010066567
000030 60 2d b9 3d 9e 4f 01 bd 39 c9 72 3c 1e bc 9c 3b
       0.09041858 -0.03157007 0.014818483 0.0047831675
000040 c2 e6 61 bd f0 b3 32 3d 8c 57 97 bd 50 cf 34 3d
       -0.05515171 0.043628633 -0.07389745 0.04414302
000050 ca d4 88 bd 56 5b 73 bd d4 f1 47 bc 21 30 4e bd
       -0.06681211 -0.059413277 -0.012203652 -0.050338868
000060 ab f9 a9 3d db 8f a4 3d 6a 6d 2e bd 92 aa ef bd
       0.082995735 0.08035251 -0.042584814 -0.117024556
000070 ae c3 2d bd cf a7 91 bd 85 e2 a7 3d d0 d9 39 3d
       -0.042422943 -0.07112085 0.08197502 0.045373738
000080 83 d8 60 bd 5d 29 88 3d e5 54 1f 3c 75 3f 33 3c
       -0.05489398 0.066485144 0.00972483 0.010940422
000090 87 21 63 bc 14 76 1a bd ae b4 15 3d c2 a3 0e bd
       -0.013862974 -0.037710264 0.036549263 -0.03482414
0000a0 08 31 74 bd d5 07 20 3d 6f 30 13 bd 66 b9 cb 3c
       -0.059617072 0.03906997 -0.03593486 0.024868678
0000b0 ee c5 22 3d 94 3e 8c 3c 5c e2 c4 bc 90 a1 0c 3d
       0.03973954 0.017119683 -0.024033718 0.034333766
0000c0 b9 2b 84 3c d7 01 b0 bd ab 88 79 3d 6c 2e d0 3d
       0.01613413 -0.08594101 0.060921352 0.10165104
0000d0 9e ec 9a 3d 86 fb 36 bc 73 0a 54 bd d5 12 4c bd
       0.075646624 -0.011168366 -0.051767778 -0.049822647
0000e0 3c 1f 83 3d 11 aa a3 ba 5e 28 b6 3c dc 4b 01 3e
       0.06402442 -0.0012486597 0.022236045 0.12626594
0000f0 38 4a 0c bc 01 b2 74 3d 60 50 9e bd 99 17 1e bc
       -0.008562617 0.05974007 -0.07730174 -0.009649181

blocks.0.attn.value.weight f4 [64, 64]
000000 54 e6 c0 bd 7e 1a 00 be 8e 93 1e 3c 50 7a c5 3d
       -0.094189316 -0.12510106 0.0096787345 0.0964247
000010 93 c1 53 be a5 12 78 3d 7f c2 fa 3c 58 11 dc 3d
       -0.20679311 0.060564656 0.030610321 0.107454956
000020 dc fd 07 bd 93 ed 28 3e 37 b9 a9 bd 10 f1 70 bd
       -0.033201084 0.16496877 -0.0828728 -0.058823645
000030 30 05 aa bc fd e9 aa 3d a2 77 65 3d ab ef 20 bd
       -0.020754427 0.08345411 0.056022294 -0.039291065
000040 a4 ec ab 3d 3d a0 a5 bd f2 31 5b 3a fb c2 9e bc
       0.08394745 -0.08087204 0.00083616294 -0.019380083
000050 e3 ac 99 bc 3f 9b 05 3e 7e 8d b8 3d a9 33 24 bc
       -0.018759197 0.13047503 0.090113625 -0.010022082
000060 5c 4b 00 be f4 76 dd bd 7e 95 b6 bc 99 13 46 bd
       -0.12528747 -0.10813704 -0.02228808 -0.048358534
000070 ff 8e 43 bd d2 e4 64 3d ed 56 4f bd 95 90 24 3c
       -0.047743794 0.055882283 -0.05062001 0.010044237
000080 fd 43 9d 3d dc 1c 92 bd ef 04 67 bd 42 51 f4 bc
       0.07678983 -0.07134411 -0.05640119 -0.029823903
000090 2c fb 4e 3d 44 66 5a 3c 84 a4 14 3e ea 7a a3 bd
       0.050532505 0.013330046 0.14515883 -0.07982428
0000a0 85 21 10 bc 81 e7 69 3d 55 0b b7 bd b1 f1 1a bd
       -0.008797054 0.057105545 -0.08937708 -0.03782815
0000b0 50 62 f6 3d cb af 02 bd 21 6f 7b 3d 8d fd 7f 3c
       0.1203047 -0.03190593 0.061385278 0.015624416
0000c0 b5 9d c7 bd 3d a8 dd bc eb 7f ef ba 8c 48 b5 bd
       -0.09746877 -0.027057761 -0.0018272375 -0.08851728
0000d0 d3 a5 17 3e ee de 9a bd b7 b7 1a 3d 97 33 41 3c
       0.1480935 -0.07562052 0.03777286 0.011792085
0000e0 a1 74 94 bd d6 62 19 bd 7d 7b 9d bd 11 a7 69 3d
       -0.07248808 -0.037447773 -0.07689569 0.057044093
0000f0 c7 23 de 3c 76 8c 6e bd fc 00 0e bc 7c fe 34 bd
       0.02711667 -0.058239423 -0.008667227 -0.044188008
000100 71 8c 83 3b 47 19 a7 bd 1c 8a 50 bc c4 78 a3 bd
       0.0040145447 -0.08159118 -0.01272824 -0.079820186
000110 79 e8 c7 3d de d9 c0 3c 3d b6 92 3d c6 3a 42 3d
       0.097611375 0.023541387 0.071636654 0.047419332
000120 7b 28 f5 3c f1 c6 fe 3d 51 cb 58 3d bb 54 a6 bd
       0.02992653 0.12440289 0.052928273 -0.0812163
000130 4d a8 0a 3d 6e b7 d9 bd ed 53 1e bd f4 82 8e 3d
       0.03385191 -0.106306896 -0.038654257 0.06958571
000140 cb 68 a1 bd fe 2f cb 3d f4 4d 0d bd 2a bc 99 3d
       -0.07881316 0.09921263 -0.03449817 0.075065926
000150 bb e9 13 3c ef 91 0e be 05 29 9f 3d fa 71 82 bc
       0.009027894 -0.13922857 0.07771496 -0.015923489
000160 a3 15 aa bd a8 f9 73 3d 76 46 8e bd e2 b7 c5 3d
       -0.08304908 0.059564263 -0.06947033 0.096542135
000170 ac 0e 4f 3c fb 67 18 3e ee 73 5d bc 4e d8 dd bd
       0.012637775 0.14883415 -0.013516409 -0.108322725
000180 a2 db 79 3d 63 70 75 bd 25 13 69 bd 36 77 11 3e
       0.061000474 -0.059921633 -0.056903023 0.14205632
000190 00 24 86 3d f9 d8 19 3d 13 c2 dc 3d a0 4a ef bd
       0.06549835 0.037560437 0.10779204 -0.116841555
0001a0 e0 75 30 3c de 80 54 bd 6b 90 7e bd 53 4f e2 bd
       0.010770291 -0.05188071 -0.062149446 -0.11050286
0001b0 63 ab b7 bc f6 ed bd 3d eb e9 78 3d da d0 07 3e
       -0.02242059 0.09273903 0.060769957 0.13263264
0001c0 96 b5 63 bc 86 24 ed 3d 6d a0 88 3c 31 11 be bc
       -0.013898274 0.11579232 0.01667806 -0.023201557
0001d0 f2 39 2d bd e1 56 4c bd 60 5c 93 bd 10 6e f6 bc
       -0.04229159 -0.04988754 -0.071953535 -0.030081779
0001e0 6a 3e 92 bd fa fd 26 b9 52 00 e6 3d db 45 15 3e
       -0.07140811 -0.00015925607 0.1123053 0.14577429
0001f0 33 2b b2 3c ce 85 d1 bb f6 07 d8 bd fd d5 18 bd
       0.021749115 -0.0063941246 -0.105483934 -0.03731345
000200 a3 d5 d7 3d eb f1 05 bd 68 c5 c8 3c 2d 24 fa 3c
       0.10538795 -0.032701414 0.024508193 0.030534828
000210 f1 49 c4 3d f0 a0 32 bd 5f e3 0c be 64 a9 25 bd
       0.09584416 -0.043610513 -0.1375861 -0.040444747
000220 26 4d ea bd fe a4 aa bd a9 85 24 3d 39 7f 8d bd
       -0.11440496 -0.08332251 0.04016653 -0.069090314
000230 ad 23 cf 3d 1e 1d 91 bd 98 88 cf bd 62 ad 50 3d
       0.101142265 -0.07085632 -0.10133475 0.0509466
000240 21 ee d1 3d 41 4d a8 bd 09 5a fa 3c 73 ee 21 bc
       0.102504976 -0.0821786 0.03056051 -0.009883511
000250 ba 2c d2 3c 79 0b e9 bd c1 73 ea 3d 8c 64 0a be
       0.025656093 -0.11379141 0.114478596 -0.13514918
000260 56 1d ab bc e3 26 2e 3e fc 51 0a 3e 9f df 7c bd
       -0.020888012 0.17007022 0.13507837 -0.0617367
000270 59 b6 ad bd 84 ec 3e bd 4a 1f cb 3c 5c 99 4d 3c
       -0.08482046 -0.046612278 0.024795193 0.012548771
000280 58 d5 7f bd 98 6a 60 bd b7 0b 05 be da e8 c0 3d
       -0.06245932 -0.054789156 -0.1299275 0.09419413
000290 0b 92 3b bd 42 d4 09 3e cc b9 f2 bd 42 7d fc 3c
       -0.045793574 0.13459876 -0.11851844 0.030821446
0002a0 7a 3d 92 bd 70 3a c1 bd f2 66 0a bd ea c5 a1 3d
       -0.07140632 -0.09434974 -0.033789583 0.07899077
0002b0 b2 30 7a bd a7 ab fb 3c a2 22 b4 3d 14 c1 95 3d
       -0.061081596 0.030721499 0.08795668 0.07312217
0002c0 93 fd 43 3e ce bf ee 3d 90 b1 8e bd 06 17 8b 3c
       0.191397 0.116576776 -0.06967461 0.016978752
0002d0 3a 15 f9 bd a2 72 60 bd b9 a0 25 3d c0 5c 44 bd
       -0.12162252 -0.054796822 0.04043648 -0.047940016
0002e0 b5 00 ef 3c 44 91 1e bd 88 ea 8a bd 14 e6 4e bd
       0.029175142 -0.038712755 -0.067830145 -0.05051239
0002f0 03 48 f7 3d 79 2a 01 be 81 ee 0d 3d ec 36 b3 3d
       0.12074282 -0.12613858 0.034651283 0.0875071
000300 b5 f2 dc 3d aa 7d e4 3d e1 08 09 3e f5 20 5a 3d
       0.1078848 0.11156781 0.13382293 0.053254087
000310 fb 43 b2 3d 0a eb 55 3d 8f 94 22 be 0a 09 58 bd
       0.087043725 0.052226104 -0.15876983 -0.052742995
000320 38 d4 04 be 39 d1 cf 3d 3c 31 85 bd 9b d5 89 3d
       -0.1297158 0.10147328 -0.06503531 0.06730195
000330 ea be ae 38 f7 e5 05 be 44 48 74 bd d4 1b 91 bd
       8.332527e-05 -0.13076006 -0.05963923 -0.07085386
000340 85 34 6d 3d 68 ad f5 bb 58 74 64 bd 1a 68 d3 3d
       0.057911415 -0.0074974783 -0.055775017 0.1032259
000350 b6 24 b3 3d 82 05 ae bc dc 0a ee 3a ee 09 c4 3d
       0.087472364 -0.02124286 0.0018161195 0.095722064
000360 88 e4 5c 3c 7f c6 89 3d bd f3 c0 3d 65 b1 ae 3c
       0.0134822205 0.06727313 0.094214894 0.021324823
000370 10 5f 4e 3d c3 ce 3c 3d 31 0b 9a bd d3 58 bc bd
       0.050383627 0.04609562 -0.07521666 -0.091966294
000380 8f d1 d9 bd 64 b2 35 3d 57 83 6c bc 70 22 57 bc
       -0.10635673 0.04435958 -0.014435611 -0.013130769
000390 d2 53 87 bc cf 34 c7 3c ff b1 2d be 54 08 c8 bd
       -0.01651946 0.024317173 -0.16962431 -0.097672135
0003a0 58 f4 16 be 68 d3 1b 3d 2c 6a dc 3d 5c e8 dc bd
       -0.14741647 0.03804341 0.10762438 -0.107865065
0003b0 ac 24 1d bb 7d b2 cd bc c3 bb ee 3d dd 41 2e 3e
       -0.0023978157 -0.025109524 0.116569065 0.17017312
0003c0 8c 63 25 3c bb b7 bc bd 4d 66 09 3e 7c cb 81 bd
       0.010094535 -0.09214731 0.13417931 -0.0633764
0003d0 7d 5f cb bd 41 e8 c7 bc 03 dd 73 bd 85 88 18 bd
       -0.09930322 -0.02440274 -0.059536945 -0.03723957
0003e0 35 26 01 3e ba 94 72 3d bf af 24 3e 8f 89 bb bd
       0.12612231 0.059223868 0.16082667 -0.091570966
0003f0 f7 23 fe 3d d3 91 5e bd dd 7e c0 bc 51 9d c2 3d
       0.124092035 -0.054338288 -0.023497993 0.09502662

blocks.0.attn.value.bias f4 [64]
000000 ca 9f 04 3e 77 fc 0b bd 0d d7 6d bd 7c 41 ab 3c
       0.1295158 -0.034176316 -0.058066417 0.020905249
000010 f6 8e 0a be 30 aa b8 bd 71 12 1d bd 53 0d 65 bd
       -0.13531098 -0.09016836 -0.038347665 -0.05592091
000020 52 bc ce 3d 6b 52 bc 3c 7c 8a 25 3e 2e 0f c8 bd
       0.10094513 0.022988519 0.16166109 -0.0976852
000030 56 e2 af bd 60 ba 8b 3d 53 cb c7 3c 5a e0 f6 bd
       -0.08588092 0.068226576 0.024388945 -0.120545104
000040 97 8d 4b 3d 45 03 09 3e 7c 2e 6e 3d 43 bf 93 3d
       0.049695577 0.13380153 0.0581498 0.07214215
000050 1c d7 fe 3c 89 bf 0f 3c f3 82 15 be 5a 25 06 3d
       0.031108432 0.008773693 -0.14600734 0.032750465
000060 f0 b8 c5 3d 3e f8 97 bd 48 90 b1 bd cc d7 9a 3d
       0.09654415 -0.07420395 -0.086700976 0.07560691
000070 00 5f ee 3d 26 d8 e8 3d bd 3a 44 bd 62 db 38 3c
       0.116392136 0.11369352 -0.04790758 0.011282774
000080 f1 15 02 3e fe d1 08 bd ba 8a 95 3d 39 91 25 bc
       0.12703682 -0.03340339 0.073018506 -0.010105425
000090 04 e3 97 3d 30 e9 07 3e b3 b6 48 bd 2e 66 0e 3c
       0.07416347 0.13272548 -0.04900236 0.008691354
0000a0 b3 ee 19 be fe 87 8d bb 56 27 45 be e7 9a a1 bd
       -0.15032463 -0.00431919 -0.19253287 -0.078908734
0000b0 2a 56 8c bd 00 25 45 3d f1 1f a4 bd 8e 5c 58 3d
       -0.06852372 0.04813099 -0.08013905 0.052822642
0000c0 4d c8 1b 3b 60 9f c6 3d dd 85 01 be 7d 77 dc 3d
       0.0023770512 0.09698367 -0.12648721 0.10764978
0000d0 05 7c a5 bd f4 eb 8f bd cc 09 0a be 46 03 09 bd
       -0.080802955 -0.07027426 -0.134803 -0.033450387
0000e0 e8 30 88 3d 54 a5 c9 3d 6b db 39 bd e8 00 98 bd
       0.06649953 0.09845987 -0.04537527 -0.07422048
0000f0 01 ab 98 bc 87 04 5e bc 4f ad a9 3d 1a 18 03 3e
       -0.018636229 -0.013550884 0.08285009 0.12802163

blocks.0.ff.0.weight f4 [256, 64]
000000 aa 51 b8 3d 3a 8a 6c 3d 23 38 d2 bc 4e 68 75 3c
       0.08999951 0.05774901 -0.025661534 0.014978481
000010 d5 86 4d 3c 66 0e 8b bd 9e c4 db 3b 3b da 20 3e
       0.0125443535 -0.06789856 0.006706788 0.15708248
000020 23 43 b3 3d f6 5b 14 3e d5 8e 24 bc 54 ee f0 bd
       0.0875304 0.14488205 -0.010043819 -0.117642075
000030 98 2f 0c bd 03 52 8a bd 1c b4 d0 3c 03 cd 86 3d
       -0.034225076 -0.06753924 0.025476508 0.06582072
000040 b5 8a 0b 3e 58 01 ef 3c 4c 10 76 3d 85 74 12 3e
       0.13627131 0.029175445 0.060074136 0.14302261
000050 f3 69 a7 3d 9e 4b 24 bd d5 a9 93 3d 4f 23 aa bc
       0.08174505 -0.040111177 0.07210127 -0.02076879
000060 f0 f7 3e 3d 6a 7a 88 3d 1e f9 5e bc ea f1 69 3d
       0.04662317 0.06663974 -0.013609199 0.057115473
000070 64 b0 c5 3c 9c 52 c4 bd 0c 5e 69 3d 59 c9 9d 3d
       0.024131961 -0.09586069 0.056974456 0.0770442
000080 46 18 2e 3d 7c 4d a7 3d 51 b6 0b be 76 5c 23 3d
       0.042503618 0.08169076 -0.13643767 0.0398831
000090 f1 6b 19 bd ea 98 ec bd a6 55 27 3e bb bc bf bc
       -0.037456457 -0.115526035 0.16341266 -0.023405423
0000a0 22 ff 3d 3d 97 d5 24 3b 7c a2 ac bc 35 ec df 3d
       0.04638589 0.0025151724 -0.021073572 0.10933725
0000b0 fb 54 09 3e 19 48 08 be 5e 61 a4 bd 09 44 12 be
       0.13411324 -0.13308753 -0.08026384 -0.14283766
0000c0 05 5e b1 bd a1 1e a8 bb 62 f2 f7 bc ac 8b b1 bd
       -0.08660511 -0.0051306044 -0.030266944 -0.086692184
0000d0 fc ce aa 3c b9 61 9b bd 6c cc 42 3d fd c8 af bc
       0.020850651 -0.075869985 0.047558233 -0.021458143
0000e0 ca b6 2e 3d e9 31 6b bd 82 a8 bb 3c f1 79 b7 3d
       0.04265479 -0.057420645 0.0229075 0.08958805
0000f0 e5 a5 dd bd 67 fa b3 3d b7 51 ae 3d 13 49 4f 3c
       -0.108226575 0.08787995 0.085116796 0.0126517
000100 4b ca 99 3c fd 8f b8 3d d9 96 89 3d da d2 2e 3d
       0.018773219 0.090118386 0.06718225 0.042681552
000110 f5 73 e3 bd 3b ff a4 3d c0 37 19 3d 9f 25 72 bd
       -0.111061014 0.08056494 0.037406683 -0.05911791
000120 9b 68 48 bd c1 2f ae 3c 3c 10 16 3c d5 ed 84 3d
       -0.048927885 0.021263005 0.009159144 0.06490675
000130 2f 9b f4 bd 2e 33 ac bd 0f 59 99 3d 40 dc 95 bc
       -0.119436614 -0.08408199 0.0748769 -0.0182935
000140 00 a5 19 3e 36 fc b8 bd b6 49 b9 bd e7 1c 53 3d
       0.15004349 -0.090324804 -0.09047262 0.051541235
000150 d1 ff 61 3d 6f be d2 3d 30 37 02 bc 53 47 42 bd
       0.055175606 0.102902286 -0.007947728 -0.0474313
000160 13 73 23 bd f6 b6 2b 3d 19 07 c9 3d df bd 01 3d
       -0.039904665 0.041922532 0.09815807 0.031675216
000170 36 57 d7 39 7a c9 48 bd 9a e7 77 bd 52 aa 23 bd
       0.00041072973 -0.049020268 -0.060523607 -0.039957352
000180 73 ce 27 bd 54 73 97 3d 82 20 a7 3b c0 27 8b 3d
       -0.04096837 0.07395044 0.005100311 0.06794691
000190 44 e5 cd 3d 9b be 7f bd d5 e0 a5 3d 3e ec ee bd
       0.100534946 -0.062437635 0.08099524 -0.11666153
0001a0 75 94 0e be a5 6c 82 3d f4 ec cd 3d 04 66 11 bd
       -0.1392382 0.063683785 0.10054961 -0.03549768
0001b0 ff a0 37 bc 2e 88 ee 3d 0f 69 ef 3d 5f 86 6f bd
       -0.011207818 0.11647068 0.1168996 -0.058477756
0001c0 20 bd 07 bd 64 93 83 bd 5b fa de 3d 4e cb 3c bd
       -0.033139348 -0.06424597 0.10887595 -0.046092324
0001d0 ab 3c f2 3d 6d 83 3c 3d 53 50 65 3c 3d 94 f3 bc
       0.11827978 0.046023775 0.013996202 -0.029733771
0001e0 b4 3f 5a 3c 6e 1d ad 3d 70 86 2a 3c 58 59 64 bd
       0.013320852 0.08452879 0.010408029 -0.055749267
0001f0 ae fb ff 3d ed 7d ab 3d ac ec 01 be 9e 1d 82 bd
       0.12499176 0.08373628 -0.1268794 -0.06353305
000200 67 72 cf bc ea 19 a4 3b e2 42 19 3d 1c 78 59 bd
       -0.025323106 0.005007972 0.0374173 -0.05309306
000210 e1 c3 ea bc 2b be a7 3d 12 89 d8 3d 7c c5 03 be
       -0.028657855 0.081905685 0.10573019 -0.12868303
000220 cb b2 69 bd 84 d9 95 b8 57 b5 a5 3d 40 bd 3d bc
       -0.057055276 -7.145389e-05 0.080912285 -0.011580765
000230 95 97 8f 3d b9 6d a1 bd ce d8 16 bd fa 70 02 bd
       0.07011334 -0.07882256 -0.036827855 -0.031846024
000240 2e 04 c5 3d 72 81 06 be 59 b7 19 bd d2 3e cc bc
       0.09619938 -0.13135317 -0.03752837 -0.024932299
000250 55 b6 89 bc cd 6c 66 bd dc 75 82 3d 5d c7 d5 bd
       -0.016810576 -0.056256104 0.06370136 -0.10438416
000260 56 6d 35 bb 25 c6 e5 3d 1d 8c a3 bd c0 b4 f2 bc
       -0.0027683578 0.11219434 -0.07985709 -0.029627204
000270 8f 31 16 be 29 e6 43 bd 68 98 03 3e 0c 64 0d bd
       -0.14667343 -0.04782692 0.12851107 -0.03451924
000280 43 c1 85 3d f1 26 88 bd eb 58 1c 3e dd 2b a7 bd
       0.06531002 -0.066480525 0.15268295 -0.08162663
000290 b1 4d 59 3c 6e 41 5d 3d d8 f3 d6 bc 30 67 c6 bb
       0.013263152 0.054017477 -0.02623932 -0.0060547814
0002a0 79 73 02 be 09 61 8a bd 0b 08 00 be ce 8f 6b bd
       -0.12739362 -0.06756789 -0.12503068 -0.05751019
0002b0 7c 72 46 bd a6 7d c9 3b c3 e2 47 bd 25 d4 fd bd
       -0.048449025 0.0061490117 -0.04880024 -0.12393979
0002c0 6d 8e 71 bd 0c de 0d 3e 6c 33 c7 bd a0 85 87 3d
       -0.05897372 0.13854235 -0.09726605 0.06617284
0002d0 47 46 d3 3b d6 4e 07 be f4 49 e4 bd 33 7a 64 3d
       0.0064475867 -0.13213667 -0.11146918 0.0557806
0002e0 e1 5a 52 3d 25 e0 ca bd 4d 8b f8 3d 72 aa 4e 3d
       0.0513562 -0.099060334 0.121359445 0.050455518
0002f0 a4 43 c5 3d b5 c5 94 bd 72 08 0d be c3 e8 e3 bc
       0.09632042 -0.07264272 -0.13772753 -0.02782095
000300 51 df 9c bd a4 c7 5d bd 52 25 96 bd 20 4d f5 3c
       -0.07659782 -0.05414547 -0.07331337 0.029944003
000310 94 ff 7d 3d cc cc d3 bc a3 9b fb 3b df 9e d8 3d
       0.062011316 -0.02585449 0.0076784655 0.10577177
000320 96 bb b0 bd 48 9e 08 be 1b 19 2d 3d 05 cb 63 bd
       -0.08629529 -0.1334163 0.04226027 -0.055613536
000330 84 f9 34 3d 87 51 d1 bd 95 c7 82 3d 3f 04 f9 3d
       0.04418327 -0.10220628 0.063857235 0.12159013
000340 85 1f 77 3d 61 f5 03 be 0e 84 80 3d ad 03 ad 3d
       0.060332794 -0.12886573 0.062751874 0.08447967
000350 c3 c8 4f 3c 50 02 c8 3d 95 b9 54 bd 77 61 6f bd
       0.012682143 0.09766066 -0.051934797 -0.05844256
000360 25 66 2a 3c 7c a1 c5 3c b2 1b 19 3e 59 6e ab bd
       0.01040033 0.024124853 0.14951971 -0.083706565
000370 51 db bb bd d1 10 15 3d ba 45 a9 3d d4 8e dd bd
       -0.09172691 0.03639299 0.082652524 -0.10818258
000380 f3 c6 b4 3d 09 a4 aa bd fb 17 80 bd 0e 22 cd 3d
       0.08827009 -0.083320685 -0.06254574 0.10016261
000390 97 dd f5 3d 04 ba cc bd 5e 0a 71 3d b5 f9 89 3d
       0.120051555 -0.09996417 0.058847778 0.06737081
0003a0 19 5d 92 3d b5 10 97 3c 38 b9 22 3d 11 48 d9 3d
       0.07146663 0.018440584 0.03972742 0.10609449
0003b0 b1 de 41 bd 59 6c 0c 3e 1f 77 06 3d 42 06 ea bc
       -0.047331516 0.13713206 0.032828446 -0.028567437
0003c0 e4 fd c2 3d 95 af 92 3d b3 63 42 bd bf cd 15 3d
       0.09521082 0.07162396 -0.04745836 0.036573168
0003d0 6a 87 e6 bc de 51 49 bc a9 09 cb b9 28 93 8d ba
       -0.028140742 -0.012287585 -0.00038726375 -0.0010801302
0003e0 52 90 31 3e 61 71 07 bd 75 05 fc 3a da ec 6b bc
       0.1734021 -0.03306711 0.00192277 -0.0143997315
0003f0 ff 9a 8f 3c 79 25 0d 3d 51 11 45 bd dd 2d f4 bc
       0.017529963 0.034459565 -0.048112217 -0.029807026

blocks.0.ff.0.bias f4 [256]
000000 26 1c 43 bd 3a 7c 51 be cb f8 16 be d5 e8 0d be
       -0.047634266 -0.20457545 -0.14743344 -0.1385835
000010 87 5e 91 bd ae 2d 93 3d 94 aa 54 bd 0f 04 b6 bd
       -0.07098108 0.07186447 -0.05192049 -0.08887493
000020 3d bc 81 bd 1f a1 08 be a1 ad 21 bc 64 15 89 bd
       -0.06334732 -0.13342713 -0.0098680565 -0.06693533
000030 65 28 58 be 7a d8 33 3d 3e d5 0a be d9 38 64 bd
       -0.2110916 0.04390762 -0.13557908 -0.055718277
000040 94 b4 0f be 0d 75 bf 3d d1 99 c1 3d 75 21 93 bd
       -0.14033729 0.093484975 0.09453166 -0.07184116
000050 be 97 8b 3d b3 c0 4f be 5f a7 45 bd b2 9d a8 bc
       0.06816052 -0.20288353 -0.04825532 -0.020583007
000060 fd 26 bb bd a5 30 1e be 73 60 12 be 12 15 e0 bd
       -0.09138296 -0.15448244 -0.14294605 -0.10941519
000070 cf 0e 6b bd 3e 44 78 bd d7 8f 47 3d b2 3f bb bd
       -0.05738717 -0.060611956 0.04872116 -0.09143008
000080 ea 75 ab bd 7a af 97 3c e2 4c 9b bc 58 b9 00 3e
       -0.083721 0.018516291 -0.018957559 0.12570703
000090 be 4f 09 be 9c e3 0c be 80 34 1f be da 0f b3 bd
       -0.13409325 -0.13758701 -0.15547371 -0.08743258
0000a0 da 3b b1 3a f3 53 97 bd 28 f2 3e be b8 9f 4c 3d
       0.0013521865 -0.07389059 -0.18647063 0.049957007
0000b0 c8 58 c3 bd 71 b8 a8 3d 2d 5b ae bd 2e b3 d5 3d
       -0.09538418 0.082383044 -0.08513484 0.104345664
0000c0 3a 92 8c 3c 0b 72 c3 3d ae 45 07 be bc e7 90 bd
       0.01715957 0.09543236 -0.13210174 -0.0707545
0000d0 40 57 71 3d c3 d7 2a 3d b5 a3 c2 3b ba 81 82 3d
       0.0589211 0.041709673 0.0059399256 0.063724
0000e0 d9 75 8e 3b 03 72 54 be 86 ef f1 3b 61 15 22 bd
       0.0043475446 -0.20746617 0.0073832897 -0.03957117
0000f0 c7 50 eb bd 78 e5 a6 bc d1 97 bd bc a3 6c 03 3d
       -0.114900164 -0.020373091 -0.02314368 0.032086026
000100 fd 67 0d be fd f0 85 bd 81 21 65 3b 52 4c be bd
       -0.138092 -0.065401055 0.0034962597 -0.09291901
000110 8f db a1 bd ab 42 b1 bd 85 41 e8 3b f3 c4 79 3c
       -0.079032056 -0.08655294 0.0070878887 0.01524471
000120 0c 64 c9 bd 39 50 ab bd ce 1f fe ba 80 14 f8 bd
       -0.098335356 -0.08364911 -0.0019388141 -0.12113285
000130 00 37 f6 bd 66 bd a6 bd b6 68 da bc db 0c d4 bd
       -0.12022209 -0.08141594 -0.026661258 -0.103540145
000140 68 ad f3 3d fe 4d ab 3d 06 5c 5b bd 80 14 b5 bc
       0.11898309 0.08364485 -0.053554557 -0.022104502
000150 5f 8f 2a bb 12 81 75 bd c6 f6 5a bb 3f 33 87 bd
       -0.0026025397 -0.059937544 -0.0033411249 -0.06601571
000160 ba f6 0f be da bd 83 bd d7 1b 8f bd 7b 34 38 bd
       -0.14058962 -0.06432696 -0.06987732 -0.044971924
000170 f8 a2 9d 3b 49 9d 99 bd b3 b0 d4 bd a0 d9 72 bc
       0.004810687 -0.07500703 -0.10385265 -0.014822394
000180 9c 5e 7c bc a8 3d 14 be 79 28 b2 bd 46 d8 92 3d
       -0.015403416 -0.14476645 -0.08699126 0.07170157
000190 7c 70 c7 3b b0 c7 9f bd 70 91 eb bd 3c 8f 90 3c
       0.006086407 -0.07801759 -0.115023494 0.017646424
0001a0 a2 00 b2 bd 1a f7 43 3d 6c 45 60 3d 3b 4e da bd
       -0.08691527 0.047843076 0.054753706 -0.106594525
0001b0 f1 e7 c4 3b 9d 31 b1 bd 4f a5 0d bb f0 c1 3d 3d
       0.006009095 -0.08652041 -0.0021613424 0.04632753
0001c0 41 ca 37 be 15 59 09 3d ad 43 11 be 9e 74 bc 3b
       -0.17948247 0.03353222 -0.14185973 0.0057512065
0001d0 54 b2 22 be 1f 16 84 3d 09 a9 1e be 51 d5 2b bd
       -0.1588834 0.06449532 -0.1549417 -0.04195148
0001e0 cb 45 d9 bd dd 55 08 bd 0a c2 3c 3d 4f 07 8e bd
       -0.10609015 -0.03328501 0.046083488 -0.06934988
0001f0 9e 41 85 bd 9b 9a 73 bd bb 7f 74 bd 3e b8 c2 bd
       -0.06506656 -0.059473615 -0.059692126 -0.09507798
000200 d8 af 3b bd 40 3d a6 3c 1c 84 e1 3c 45 58 29 be
       -0.045821995 0.020292878 0.027528815 -0.16537578
000210 00 8f a9 bd cc 10 34 bc fd 56 de bd 45 08 fe bd
       -0.08279228 -0.010990333 -0.108564354 -0.12403921
000220 12 1f 2d 3d 90 3e 7f bd a5 a9 1d be 5e 74 b4 bd
       0.04226596 -0.062315524 -0.15396746 -0.08811258
000230 96 38 d2 3c 9a d6 9f bd 33 98 8b bd e7 af da 3b
       0.025661748 -0.07804604 -0.06816139 0.006673801
000240 8b 59 99 bd 77 b6 cd 3c 97 62 2c be 4e 5a 3e 3d
       -0.07487782 0.02511142 -0.16834484 0.04647284
000250 d7 5c 2c be 2b ff 1e 3b 45 4e 19 3c 4c 16 d3 bd
       -0.1683229 0.0024260979 0.00935704 -0.10306987
000260 73 28 e1 bd ba 69 41 be f2 f6 bf bb 16 5f f4 bd
       -0.10994043 -0.18887988 -0.0058582956 -0.11932199
000270 89 92 56 3c ca ee e2 bd bf bf c3 bd a4 8e 7c bb
       0.01309646 -0.11080702 -0.09558057 -0.003853717
000280 e1 2b 16 be 9b 26 30 3c 7b f4 ed bd a5 cd ad bd
       -0.14665176 0.010751392 -0.116188966 -0.08486489
000290 7f f6 dc bd 48 16 07 3e 51 30 ed 3b 74 12 11 be
       -0.10789203 0.13192093 0.007238426 -0.14167196
0002a0 63 20 d5 bd 67 b6 56 bd d8 56 b4 bd 21 18 0b be
       -0.10406568 -0.052420046 -0.08805627 -0.13583423
0002b0 bc e3 44 3d 18 ee 03 3b de d7 86 bd d2 18 52 3d
       0.048068747 0.0020130929 -0.06584142 0.0512932
0002c0 f1 2d 06 3d 17 3e 2c be f3 11 7f 3b b2 cf 2c be
       0.032758657 -0.1682056 0.003892061 -0.16876104
0002d0 9e 42 ad 3d 39 19 c4 bc f7 92 fa bc cc 6c 7e bd
       0.08459972 -0.023937808 -0.030587656 -0.062115476
0002e0 f6 40 8b bd 55 dd 52 3d b4 ae 6d bc 75 c8 9a 3d
       -0.067995 0.05148061 -0.0145069845 0.075577654
0002f0 c6 56 70 bb a6 61 8e bd 5b 2d 31 be 7c ea 38 be
       -0.0036672815 -0.06952219 -0.17302458 -0.18058199
000300 3f 96 03 3d 35 e4 21 bc 06 a1 6d 3d a8 f9 44 be
       0.032125708 -0.009881069 0.058014892 -0.19235861
000310 14 6d fc bc 40 4a 04 be d3 7b 47 bd 30 96 a6 3d
       -0.030813731 -0.12918949 -0.048702072 0.08134115
000320 73 e2 7d bc e8 a5 03 3d e8 de 99 3d 07 c6 91 3d
       -0.015495884 0.032140642 0.07513219 0.07117849
000330 0a 73 68 bc 62 d3 63 bd 46 97 1e 3d ba c3 b6 bd
       -0.014187584 -0.055621512 0.038718484 -0.08924051
000340 53 8e 48 bd 02 a4 b9 bd 2c d1 9c bd 3e 30 91 3c
       -0.048963856 -0.09064485 -0.07657084 0.017723199
000350 c8 8a cd bc eb f2 73 bd d2 27 24 be 70 6f 1f be
       -0.02509059 -0.059557837 -0.16030815 -0.15569854
000360 70 51 80 3d 78 79 14 3d 08 ce ea bd 88 96 7e 3d
       0.06265533 0.036248654 -0.114650786 0.062155277
000370 b9 fc 52 be 2d 8d df bd 62 a3 dc 3d e5 cd b1 bc
       -0.20604219 -0.10915599 0.1077335 -0.021704623
000380 37 a8 d4 bd d0 05 f9 bd 61 df 3a be 83 9d 5e 3c
       -0.10383647 -0.12159312 -0.18249275 0.013587358
000390 4f a2 74 3d f8 a5 90 bd 0a 73 ac bc 40 31 06 be
       0.059725102 -0.07062906 -0.021050949 -0.13104725
0003a0 17 69 f0 bd 04 28 cc 3b f0 b5 0c be 92 e2 f9 bd
       -0.11738794 0.006230356 -0.13741279 -0.12201418
0003b0 11 03 87 bd 6e 15 b0 bd 7b 86 d9 3d 01 b1 04 3d
       -0.06592382 -0.085978374 0.10621353 0.032395367
0003c0 ec 58 dc 3c 53 a6 b6 bd dd 9b 8f bd c4 78 83 bd
       0.02689787 -0.089184426 -0.070121504 -0.064195186
0003d0 0e 86 bf bc 90 54 85 bd 8a 00 93 3d 71 2c e2 bc
       -0.023379352 -0.0651027 0.07177837 -0.027609082
0003e0 48 c3 25 be c4 d9 9c 3d ff aa 94 3d ab 3e 4f bd
       -0.16187775 0.07658723 0.072591774 -0.050596874
0003f0 6e 94 1c bd 94 fe cb bd 8d 92 e3 bd d3 a1 26 3d
       -0.03822749 -0.09960666 -0.11111937 0.04068167
